scheduler_mlp/scheduler_mlp.pth (torch, 3203 bytes, 3 tensors)

fc1.weight f4 [100, 2]
000000 df 9d 7b 3e d6 f2 04 3f 74 ad bf 3d 98 44 9a 3e
       0.24571942 0.5193304 0.093592554 0.30130458
000010 41 89 18 bf ab 7c 57 3e 73 2d 55 be a8 78 0d be
       -0.5958443 0.21043651 -0.20818119 -0.13815558
000020 95 7b 1c 3e 3b eb 2f 3f 70 b0 0a bf fd 11 9d 3e
       0.15281518 0.6871831 -0.5417547 0.30677786
000030 da 72 76 be ad bd a0 be 75 6a d7 be 2d d9 08 3f
       -0.2406725 -0.3139471 -0.42073408 0.53456384
000040 71 40 a0 3e 7c bf e3 3c 81 dc 9b 3e 61 0e 16 3e
       0.31299165 0.027801268 0.3044167 0.14653923
000050 d9 9c 56 3c d0 37 13 3f e3 40 ae 3e ff 8c 4d be
       0.013098919 0.5750704 0.3403388 -0.20073317
000060 e5 8f 72 3e 38 ab a0 3e 74 11 4e 3d 11 06 3b be
       0.23687704 0.3138063 0.050309613 -0.18264033
000070 cc f6 f1 be f1 3c 21 bf af 97 4d bd 69 93 34 3f
       -0.47258604 -0.62983614 -0.050193485 0.7053743
000080 fb 8b 04 bf 5e 43 9e 3e c9 5f 11 be ae cc f5 3e
       -0.51776093 0.30910772 -0.14196695 0.4800772
000090 18 c3 f5 3e a3 12 78 3c 04 db c5 3d ac 4d 2e bf
       0.48000407 0.015141162 0.096609145 -0.6808727
0000a0 ee 03 87 bd e5 a8 11 3e 5c 40 e5 be 92 15 fd bd
       -0.065925464 0.14224584 -0.44775665 -0.1235763
0000b0 80 aa e3 be 2a 14 ee be 30 c6 23 3a f4 81 cc 3e
       -0.4446602 -0.4649976 0.0006247489 0.39942896
0000c0 d5 4e 89 be 45 f2 1d be 18 c4 d4 be 03 ec 7a be
       -0.26817957 -0.1542445 -0.41555858 -0.24504094
0000d0 d5 a9 ba 3e ba e8 33 bf 50 69 76 3d ea d7 ac be
       0.36457697 -0.7027699 0.060159028 -0.3375848
0000e0 92 e6 ce bd 7f f6 b9 be 83 c0 df be 19 64 1a bf
       -0.101025715 -0.36320874 -0.43701562 -0.60308987
0000f0 75 ca 0a bd 15 71 8e be d2 04 c4 be 72 30 c5 be
       -0.033884484 -0.2782065 -0.38284928 -0.38513523
000100 8e 3e ed bd 97 07 28 bf 12 be ea be 3e 09 12 3f
       -0.11584197 -0.6563658 -0.45848137 0.5704535
000110 ba d2 8f 3e ee 0c 07 bf b0 65 5f 3e 73 7a 18 3f
       0.2809046 -0.52754104 0.21816134 0.5956184
000120 b1 fc ec 3e ac d3 af be 85 8a 9b be fc 60 a2 be
       0.46286538 -0.3434118 -0.3037912 -0.31714618
000130 22 32 df 3e ae a3 c3 3e c5 2d 0f bf b7 15 e7 3d
       0.43592936 0.38210815 -0.55929214 0.11283439
000140 bb fa d3 be 42 d5 f3 be be 3d 35 be fe b2 bc be
       -0.4140223 -0.4762364 -0.17699334 -0.3685531
000150 51 14 0e 3d c2 1f 1e bf 4e e7 0b 3e e6 46 1c 3f
       0.034687344 -0.6176721 0.13662454 0.6104568
000160 e6 a5 10 3c af 2b cb 3c e5 96 4a bc 0e 19 0a 3f
       0.008828616 0.024801103 -0.012365078 0.5394448
000170 0e 9d 8b be 34 00 0f 3f 38 c3 76 be c0 2f d7 be
       -0.2726826 0.55859685 -0.24097908 -0.42028618
000180 b6 5f 0d be 68 07 45 bc 73 9d da bd d0 62 ee 3e
       -0.13806042 -0.012025692 -0.10674562 0.46559763
000190 ef 6a 57 be 7b 37 83 3e 97 29 3b 3e e2 fd 0c 3f
       -0.21036886 0.25628266 0.18277584 0.55074894
0001a0 e2 52 8d be 7f 82 01 bf 84 56 d4 be ef 39 21 3f
       -0.27602297 -0.50589746 -0.41472256 0.62979025
0001b0 c4 20 17 3f 02 92 11 bf 0e fd 1e 3f f3 6f 68 bc
       0.5903437 -0.56863415 0.6210488 -0.014186847
0001c0 e6 fb b8 be 42 4d 19 3f 54 f9 f5 3e b5 6d 5f 3d
       -0.36129683 0.5988351 0.48041785 0.054547984
0001d0 82 d6 31 bf c6 f0 d2 3e 16 83 21 3f de 2b cb 3e
       -0.6946794 0.4119932 0.63090646 0.39681906
0001e0 b3 43 27 3e 89 ed fc 3e 54 48 8a be f6 ef b7 be
       0.16334419 0.49399975 -0.27008307 -0.35925263
0001f0 6d 08 5b be 5c d3 32 3e 50 58 1e 3f 5c a1 25 3e
       -0.21389933 0.1746344 0.61853504 0.16174835
000200 5a bb e7 3d 56 73 7d 3d a6 1b d3 bd 47 ee ef 3e
       0.11315031 0.06187757 -0.10308008 0.4686148
000210 c3 f3 8c 3e 02 01 1f bf 24 20 75 3e 3e 5e 16 3f
       0.27529725 -0.6211091 0.23938042 0.5873755
000220 fd 89 1a bf 8b 0c 1c be 30 e3 d5 bd 71 2d 9b bd
       -0.60366803 -0.1523916 -0.10443723 -0.07577027
000230 99 10 b6 be 39 2d 6e be 92 96 ab be ec 78 94 be
       -0.35559538 -0.23259439 -0.33513314 -0.28998506
000240 37 b0 30 bf f0 31 68 be f0 ae 83 3d b3 71 83 3d
       -0.6901888 -0.226753 0.06429851 0.06418171
000250 d1 32 b3 be e6 8f 73 3e 59 01 31 bf 30 9b 5a be
       -0.34999707 0.23785362 -0.6914268 -0.21348262
000260 6a dd 10 3f 26 26 de be 23 fe 1f bf d2 61 a0 bd
       0.5658785 -0.4338848 -0.62497157 -0.07831158
000270 40 bf ae 3e 09 c8 a2 be 64 4b b5 bd 56 dc ca be
       0.34130287 -0.3179324 -0.0885227 -0.39621228
000280 4f 20 11 3f 25 12 b0 be 97 8c a1 3e 29 fe 34 bf
       0.56689924 -0.34388843 0.31552574 -0.7070032
000290 54 90 c6 3d 48 d9 91 be d7 c2 2d bf 33 ea 08 3f
       0.09695497 -0.28486085 -0.67875427 0.5348236
0002a0 f4 5e 4e 3e 62 da 93 3e de 45 1a 3f 76 01 28 3f
       0.20153409 0.2887755 0.6026286 0.6562723
0002b0 32 6d 00 3f bf 26 29 3f 64 9c 14 3e c3 e9 ad be
       0.5016662 0.66074747 0.14512783 -0.3396741
0002c0 fb 14 25 bf 8d 6e de 3e 97 23 80 be 81 e7 ee be
       -0.6448514 0.4344372 -0.25027153 -0.46660998
0002d0 10 51 9f 3e b2 cb fe be 86 f8 c4 3e 61 78 1a bf
       0.31116533 -0.49764782 0.38470858 -0.60339934
0002e0 d3 fc c7 be 21 3b 1d 3d cd ee 23 bf 0c c7 1a 3f
       -0.39060077 0.038386468 -0.64036256 0.6045997
0002f0 a4 6c 31 be 69 56 8c be 21 70 96 be 40 e5 0e be
       -0.173266 -0.27409676 -0.29382423 -0.1395464
000300 90 05 6b be ae bb c5 be db 22 59 3e c0 cb 4d 3e
       -0.2295134 -0.3861975 0.21204703 0.20097256
000310 17 c9 ac 3a 65 98 04 3f f3 bd 1e 3e e0 99 25 3f
       0.0013182488 0.51795036 0.15502147 0.6468792

fc1.bias f4 [100]
000000 7a 79 50 be fa 87 2d 3f 0d 1d cc 3e c8 9c 0a 3d
       -0.2035884 0.6778561 0.39865914 0.033840925
000010 c5 87 60 be a3 b7 00 bf 16 88 24 be 2e 7c fa 3e
       -0.21926792 -0.5028021 -0.16067538 0.48922867
000020 b1 01 a7 be 01 db 30 be 90 10 9f 3d 33 d1 ee bd
       -0.32618478 -0.17271043 0.07766831 -0.11660995
000030 7b 09 e3 3d 55 fb cf be 67 7d 74 bd 50 7e a6 bb
       0.11085793 -0.4062144 -0.059689905 -0.0050809756
000040 a3 87 b7 3d f1 03 4f be b1 94 cc 3e fc ea 47 be
       0.089614175 -0.20216347 0.39957193 -0.19523233
000050 e5 df 85 be 1b 86 10 3f 48 92 b8 3e 6b e5 1a bf
       -0.2614738 0.5645463 0.36049104 -0.60506314
000060 dc 52 12 bf 7e ff 15 3f 93 ef 0b 3f 7f 03 a0 bd
       -0.57157683 0.58592975 0.54662436 -0.07813167
000070 ca c4 25 3f 2a 68 68 3e 39 6e bb 3e de 4f 22 bf
       0.647534 0.22695985 0.3660753 -0.6340312
000080 08 b2 27 3f 05 33 26 be 3e 7f 11 3f be 86 1d bf
       0.6550603 -0.162304 0.5683478 -0.61533725
000090 18 d8 d1 be 3e 98 34 3f 37 43 29 bf 96 aa 00 bf
       -0.4098518 0.70544803 -0.66118187 -0.50260293
0000a0 3d 54 2b 3f 22 d0 df be b6 15 01 3f 60 46 cc 3d
       0.6692541 -0.4371348 0.50423753 0.099743605
0000b0 4a 6e e2 3e d2 52 1b 3f 1f 46 ff be 43 62 27 3e
       0.4422477 0.6067325 -0.49858186 0.16346078
0000c0 66 8d 9c 3b f5 0b 33 3f 11 8d ea be 2c 61 05 bf
       0.004777598 0.6994012 -0.4581075 -0.521014
0000d0 13 c8 fe be 49 bc 34 3f 0b 2a 13 bd 94 b8 19 be
       -0.4976202 0.705998 -0.035928767 -0.15011817
0000e0 ea 8c 7d 3e dd 78 71 be 8a 70 27 bf 43 6f b8 3e
       0.24760786 -0.23581262 -0.65406096 0.36022386
0000f0 a9 1f 02 3f 02 eb 5b bd 59 0f ed be 03 c1 f5 3e
       0.5082956 -0.053690918 -0.46300772 0.4799882
000100 d3 cd a9 bd f0 3f bd be 1e 3f 8b 3e 24 fe b0 bd
       -0.08291211 -0.36962843 0.27196592 -0.086422235
000110 2b 4b 10 3d b3 30 4a 3e d9 b2 04 bf f3 1c a7 be
       0.035227936 0.1974514 -0.518354 -0.32639274
000120 3a 92 2e 3d b1 4f 17 bf 24 f2 02 bf bd e9 ae 3e
       0.04261992 -0.59105974 -0.5115073 0.34162703
000130 e4 e9 5a be b4 30 61 3e 88 55 87 bd 4d f0 c7 3e
       -0.21378285 0.21991235 -0.06608111 0.39050522
000140 ee 5f 91 be d5 cd 34 bf 25 ca 91 3e da eb 93 be
       -0.283935 -0.70626575 0.28474537 -0.28890878
000150 f4 99 25 be 7f 73 66 3d 31 2d 2e 3f f0 69 7f be
       -0.1617201 0.05626249 0.68037707 -0.24942756
000160 ac 25 22 3f dc 7b df 3e 20 c6 0c bf 47 bd 87 be
       0.6333873 0.43649185 -0.54989815 -0.26511595
000170 08 7b 0b 3e a8 6a 2d 3f e2 ad 0e 3f a8 09 9b 3e
       0.13621151 0.6774087 0.55734074 0.30280805
000180 4e e0 df be d6 55 51 bd fc 24 08 3f c8 41 83 3e
       -0.43725818 -0.05110725 0.53181434 0.25636125

fc2.weight f4 [1, 100]
000000 41 de d1 3d b3 cf b8 3d 2a 56 be 3c 5b 89 8b 3d
       0.1024747 0.090239905 0.023234446 0.06813308
000010 b6 40 5c bd cd b5 6b 3d 24 4f 52 3d 7a cd 7a bb
       -0.05377265 0.057546426 0.051345006 -0.0038269446
000020 65 c4 0e 3c a7 00 87 3c 1f c6 0b 3b 1a fd 13 3c
       0.008713816 0.016479803 0.0021327806 0.009032512
000030 c4 0a 97 bd 91 72 2d 3d ad 10 76 3d c2 f9 79 bd
       -0.073751 0.042345587 0.060074497 -0.061029203
000040 0f 3e b9 bd ce 9b a3 3c b3 54 0f 3c 88 52 13 3d
       -0.0904504 0.019971754 0.008748221 0.03596738
000050 01 1e 21 bd b1 96 53 3d 79 88 0a 3c 31 d6 2d bd
       -0.039335255 0.051657382 0.008455389 -0.042440597
000060 eb 94 cf bc bf c5 cb 3c 17 12 cd bc 66 8b 9d 3d
       -0.025339564 0.024874566 -0.02503304 0.07692604
000070 5a 63 6e bc 7b 2f 2c 3d ad 6e 10 bc dc e1 d1 bd
       -0.014550054 0.04203747 -0.00881545 -0.102481574
000080 c7 63 d8 bd 46 f8 93 bb 11 99 ba 3c 81 d5 8f 3d
       -0.10565906 -0.0045156805 0.022778066 0.070231445
000090 e9 13 13 bd dd f9 33 3d 82 89 0f bd 87 8a 82 3d
       -0.03590766 0.04393946 -0.035043247 0.06374078
0000a0 bb 73 9b bd 24 f0 d5 3b 8c 36 cb 3c 38 f5 47 bd
       -0.07590433 0.006528871 0.024806283 -0.048817843
0000b0 25 26 e7 bc 0e 56 85 3d 68 a8 0c bc 31 e5 41 bd
       -0.02821643 0.06510554 -0.008585073 -0.047337715
0000c0 2f 3c 29 bb 98 9c 19 3d 34 be 1a bd e8 ff ed 3d
       -0.0025823226 0.037502855 -0.037779048 0.11621076
0000d0 f5 44 16 3d 71 a6 bd bd 92 80 8f bd 5e bd 8f 3d
       0.036686856 -0.09260262 -0.07006945 0.07018541
0000e0 92 64 3e 3d f7 23 e2 b9 f9 69 6d 3d 77 27 9e bc
       0.04648263 -0.00043132875 0.05796239 -0.019305928
0000f0 a6 bb 94 3d 6f dc 23 bd e7 81 75 3c 58 61 fe 3c
       0.072623536 -0.040005144 0.014984584 0.031052276
000100 69 34 5c bd 9d fc 54 bd c5 a0 66 3d d7 a7 ce 3c
       -0.05376092 -0.051998723 0.056305666 0.025226517
000110 34 32 83 bd 28 a0 31 bd 87 f2 17 bc 92 3d 89 3d
       -0.0640606 -0.043365628 -0.009274132 0.06701197
000120 b4 f3 74 bd 7c 55 a2 bc 34 2f 9b bc 3f 4b 37 3d
       -0.059802726 -0.019816153 -0.018943407 0.044749495
000130 b3 45 d5 bc 3d 01 b7 3c 4b 86 2b bd 3a 54 85 3d
       -0.026034212 0.022339458 -0.04187612 0.065102056
000140 bc d9 76 bd 33 7e 94 bd 29 02 2f bd 0d 86 c0 bb
       -0.06026624 -0.07250633 -0.04272667 -0.005875355
000150 c0 f2 b1 bd 90 66 6f bd 4d c0 3b 3d cf 9a 9a 3d
       -0.08688879 -0.05844742 0.04583769 0.07549059
000160 d1 6e 84 bd 7b 3b bb bd 9e 62 e9 bc 8d 28 b4 3d
       -0.06466449 -0.091422044 -0.028489407 0.08796797
000170 a9 26 e2 3c 3b a9 c4 bd da 09 2e bd 1f 6c 55 3d
       0.027606325 -0.09602591 -0.042489864 0.052105065
000180 94 97 4e 3d 7e 52 9b bd 59 51 c3 bb f4 02 12 3d
       0.050437525 -0.075840935 -0.005960625 0.035647348
