scheduler_mlp/scheduler_mlp.pth (torch, 3203 bytes, 3 tensors)

fc1.weight f4 [100, 2]
-0.54081327 -0.2020807 -0.5701188 0.54852456 -0.22042942 0.5809765 0.24320842 -0.009008563
-0.407997 0.49027076 -0.45947754 0.27698308 0.45361435 -0.19798058 -0.11633898 -0.6016993
-0.07979481 0.6403908 0.13614184 0.0682561 0.059109144 -0.1909932 -0.09767125 -0.46857035
-0.29475787 0.3092632 -0.6794596 0.46631515 -0.24554427 0.22004022 0.52682495 -0.6030994
-0.41867313 0.124783464 -0.15972494 -0.13375862 0.26355195 -0.4136371 -0.18082885 0.12667231
-0.68848234 -0.16691934 0.6934397 -0.6550798 0.53712654 0.23839638 -0.06322017 -0.49978915
0.32692602 0.16768156 0.26293197 0.124298915 0.22658178 0.045005124 -0.15891515 0.054331306
0.63344085 0.44093066 0.58406717 0.15735504 -0.070008926 0.5924527 0.30851462 0.21777761
0.45596418 0.38889936 -0.4605977 0.57847923 -0.60856825 0.5796447 0.62996095 0.060452092
-0.21231334 0.37876424 -0.006280345 0.30872282 -0.6456125 -0.48454052 -0.39467123 0.49875495
-0.1687682 -0.0618676 0.3709776 0.25652525 0.15856788 -0.09206205 -0.25596726 0.022847215
-0.09496189 -0.3562705 0.258426 -0.04684339 -0.5129378 -0.42885214 0.31910667 0.27818245
-0.3388247 -0.49110425 -0.119638324 -0.5897624 -0.21314579 0.6426863 -0.029759375 -0.21473318
-0.07677711 -0.1400208 0.013638734 -0.2780137 0.45372242 0.31441382 -0.0836221 -0.6372278
0.31551713 -0.40051937 -0.32689893 -0.14810032 0.5901172 -0.45445383 0.10640451 -0.30857286
0.5452751 -0.31136304 -0.68088925 -0.696707 -0.68567926 0.008668058 -0.46558642 0.08098945
0.15231486 0.14259826 -0.3062184 -0.23757783 -0.54775286 0.30887684 0.13771008 -0.44003323
0.29761392 0.60625947 0.3832185 0.1463643 -0.31229332 -0.12980701 -0.54157853 -0.3809488
0.28355196 0.12957963 -0.6806625 -0.14478928 0.18676619 -0.69954 -0.6991534 0.68001807
-0.26756078 0.595335 0.17319176 0.0788903 -0.057540137 0.41395676 0.37701094 0.69826645
-0.5213008 -0.53553426 0.3599988 0.6396347 0.47236443 0.65491325 0.34204265 0.2243683
-0.70507467 0.23685528 0.52617884 0.21664806 0.3076557 -0.035555713 -0.017608808 -0.10583413
0.25211933 -0.5821923 -0.54984534 -0.23097298 -0.11456936 -0.48759854 0.37214148 0.33179256
0.1654943 0.3114833 0.52778196 0.5648274 -0.24116872 -0.19143488 -0.18517314 -0.5565684
-0.0066841715 0.4034329 0.6353164 0.028833142 0.0047935825 0.22127403 -0.1341961 -0.15366195
00000000: bd72 0abf 3eee 4ebe 4ef3 11bf 1b6c 0c3f
00000010: 40b8 61be e0ba 143f a10b 793e a798 13bc
00000020: fce4 d0be c504 fb3e a440 ebbe bad0 8d3e
00000030: 2440 e83e 6cbb 4abe 2243 eebd f708 1abf
00000040: 766b a3bd a7f0 233f c468 0b3e dbc9 8b3d
00000050: 6e1c 723d b993 43be dd07 c8bd 74e8 efbe
00000060: 81ea 96be bf57 9e3e 10f1 2dbf dcc0 ee3e
00000070: f56f 7bbe 3952 613e 00de 063f b964 1abf
00000080: 535c d6be 798e ff3d ef8e 23be 05f8 08be
00000090: 48f0 863e 3ec8 d3be 332b 39be 63b6 013e
000000a0: 6140 30bf e7ec 2abe 4485 313f 4fb3 27bf
000000b0: 2081 093f 2e1e 743e 9479 81bd 5de4 ffbe
000000c0: d962 a73e b7b4 2b3e 059f 863e 6e90 fe3d
000000d0: 0e05 683e 4b57 383d a7ba 22be 818a 5e3d
000000e0: 2e29 223f aac1 e13e 6d85 153f ae21 213e
000000f0: d760 8fbd fbaa 173f a1f5 9d3e 1801 5f3e
00000100: 2374 e93e d11d c73e 76d3 ebbe 3717 143f
00000110: 21cb 1bbf 9863 143f 1f45 213f 9d9c 773d
00000120: ab68 59be 63ed c13e 5acb cdbb eb10 9e3e
00000130: dc46 25bf b215 f8be 5912 cabe cf5c ff3e
00000140: 92d1 2cbe e168 7dbd c7f0 bd3e 4757 833e
00000150: 9e5f 223e 078b bcbd 240e 83be 152a bb3c
00000160: 617b c2bd 1669 b6be 6a50 843e dbde 3fbd
00000170: e44f 03bf 8292 dbbe f361 a33e ee6d 8e3e
00000180: 6e7a adbe 0472 fbbe f004 f5bd abfa 16bf
00000190: e442 5abe 1787 243f efc9 f3bc 04e3 5bbe
000001a0: 513d 9dbd 9d61 0fbe ff74 5f3c d057 8ebe
000001b0: 4e4e e83e d9fa a03e 1042 abbd 5c21 23bf
000001c0: 768b a13e e010 cdbe 4c5f a7be 9ca7 17be
000001d0: ec11 173f 2cae e8be 9cea d93d 43fd 9dbe
000001e0: 2697 0b3f fa6a 9fbe c24e 2ebf 645b 32bf
000001f0: ad88 2fbf 7804 0e3c 5861 eebe ccdd a53d
00000200: 6df8 1b3e 4705 123e a8c8 9cbe 9a47 73be
00000210: 8839 0cbf 1b25 9e3e df03 0d3e 094c e1be
00000220: da60 983e d233 1b3f 3735 c43e 86e0 153e
00000230: e9e4 9fbe 21ec 04be e4a4 0abf b90b c3be
00000240: b92d 913e 86b0 043e e63f 2ebf a443 14be
00000250: a33f 3f3e 0e15 33bf b8fb 32bf aa15 2e3f
00000260: bafd 88be e067 183f 2e59 313e 3d91 a13d
00000270: 35af 6bbd 24f2 d33e 9407 c13e 97c1 323f
00000280: f873 05bf c618 09bf c351 b83e 1abf 233f
00000290: c0d9 f13e 65a8 273f 3720 af3e cec0 653e
000002a0: c67f 34bf 318a 723e a8b3 063f fdd8 5d3e
000002b0: 0c85 9d3e dea2 11bd 5940 90bc 90bf d8bd
000002c0: c915 813e 8e0a 15bf aac2 0cbf 2e84 6cbe
000002d0: 57a3 eabd 84a6 f9be 5489 be3e b7e0 a93e
000002e0: 5677 293e bd7a 9f3e b81c 073f 8798 103f
000002f0: eff4 76be 8107 44be 079e 3dbe 447b 0ebf
00000300: e506 dbbb c28e ce3e 18a4 223f 7b33 ec3c
00000310: 7c13 9d3b a995 623e b46a 09be 8f59 1dbe

fc1.bias f4 [100]
0.37270522 -0.2963702 -0.2755541 0.37739488 0.046539303 -0.39636838 0.69436884 -0.3536972
-0.46288538 0.45218801 -0.19949837 -0.21246284 -0.47391215 -0.53860676 0.15848231 0.4411016
0.45454 0.20857787 0.13461538 -0.5281733 0.3860218 -0.5514526 0.5444403 -0.3082439
-0.10333139 0.12961005 0.06777073 0.014679498 -0.109882005 0.09635836 0.5798973 0.29095167
0.011240047 -0.3856758 -0.21694815 -0.48669007 0.41677585 -0.31498277 0.2274302 -0.08832583
0.55660725 0.4639562 -0.060698565 0.41625118 0.44108912 -0.5197253 -0.6297545 -0.4336089
0.46390006 -0.14074731 0.34042352 -0.036587857 -0.46547037 0.41791868 -0.39507467 0.3748892
-0.25143808 0.085966714 0.10914382 0.5955317 0.51842207 -0.5202052 0.026969057 -0.015079043
-0.040416617 0.41023016 0.36506337 0.43796727 -0.12708366 0.507921 0.14180689 0.30293792
-0.40797484 0.6516668 -0.398571 -0.57034147 -0.11481705 -0.23331282 0.66773415 0.13615589
-0.26089603 0.018048497 -0.017514944 0.09511045 0.49753794 0.6704166 -0.42200464 0.5955998
0.13884406 0.28370097 0.033218663 -0.65763986 0.23342463 0.41995436 0.46121866 0.20282203
-0.39760333 -0.35387856 -0.26127473 0.30190635
00000000: 38d3 be3e d6bd 97be 6d15 8dbe e739 c13e
00000010: ff9f 3e3d ccf0 cabe 28c2 313f cd17 b5be
00000020: 50ff ecbe 3085 e73e 4d49 4cbe dc8f 59be
00000030: 9da4 f2be 22e2 09bf 3049 223e 12d8 e13e
00000040: 78b9 e83e 7095 553e 9dd8 093e 5e36 07bf
00000050: a6a4 c53e ff2b 0dbf 7160 0b3f 25d2 9dbe
00000060: 689f d3bd 7fb8 043e 61cb 8a3d 4782 703c
00000070: d109 e1bd 8857 c53d 2674 143f 9ef7 943e
00000080: 2d28 383c 4c77 c5be a827 5ebe 712f f9be
00000090: a563 d53e 6c45 a1be 76e3 683e 2ce4 b4bd
000000a0: d07d 0e3f ab8b ed3e 0f9f 78bd e01e d53e
000000b0: 6fd6 e13e b80c 05bf 9737 21bf fc01 debe
000000c0: 4f84 ed3e 1020 10be fe4b ae3e 26dd 15bd
000000d0: 2252 eebe 70f9 d53e 3a47 cabe 7af1 bf3e
000000e0: 7ebc 80be 510f b03d cc86 df3d c474 183f
000000f0: 4fb7 043f 2b2c 05bf 36ee dc3c 170e 77bc
00000100: e58b 25bd b009 d23e 96e9 ba3e 3f3d e03e
00000110: 3822 02be 1c07 023f d335 113e ae1a 9b3e
00000120: 14e2 d0be a3d3 263f 8011 ccbe e601 12bf
00000130: 3425 ebbd 8ee9 6ebe a0f0 2a3f 736c 0b3e
00000140: 2a94 85be 71da 933c 807b 8fbc 45c9 c23d
00000150: 4bbd fe3e 6ca0 2b3f fe10 d8be 3a79 183f
00000160: 232d 0e3e 4141 913e 4b10 083d 165b 28bf
00000170: de06 6f3e 4204 d73e da24 ec3e 94b0 4f3e
00000180: aa92 cbbe 922f b5be cdc5 85be 7893 9a3e

fc2.weight f4 [1, 100]
-0.010082258 -0.03544169 -0.015122919 0.03583128 0.033391967 0.056932606 -0.04982013 0.0031124237
-0.06994136 -0.0744245 -0.04690771 0.07810774 -0.09112904 0.018569145 0.0972317 0.03542126
-3.0731946e-05 -0.011940093 0.034333196 0.061823968 -0.025254523 0.023902439 0.034760896 -0.07902247
-0.04449582 -0.06272026 0.01644579 -0.09080829 -0.04088595 -0.07700616 0.019351268 -0.003119343
0.084939435 0.054810673 -0.017329598 0.00025438788 -0.05881901 0.10252994 -0.0004032928 0.090748206
-0.087898865 -0.06258354 0.061420295 -0.05155092 -0.028909044 0.035287436 -0.09117921 -0.07049752
-0.014589488 -0.02706851 0.0028272227 -0.045041855 0.037016746 0.0313908 -0.056705404 0.04819619
-0.10414241 -0.06210052 -0.009086777 0.061012838 0.08156875 0.012739261 0.027906962 0.056570273
0.014583273 0.005915712 -0.0870366 0.051161025 0.00021767929 0.072012484 -0.038299285 -0.0020905884
-0.009116087 -0.025652476 0.0832096 0.06552938 0.018885758 0.0038832438 -0.07942879 -0.022005787
0.03942817 0.052907135 0.038563445 0.062781624 -0.025151797 -0.005218257 -0.07428524 -0.026814178
-0.0024084428 0.008216954 -0.08948279 0.072262704 -0.060271252 0.08196067 0.075672306 0.076327525
-0.035421103 -0.090966396 -0.012709903 -0.02792694
00000000: 0e30 25bc 4e2b 11bd 1fc6 77bc d2c3 123d
00000010: 04c6 083d 2a32 693d 3110 4cbd cef9 4b3b
00000020: 6a3d 8fbd df6b 98bd 4d22 40bd f3f6 9f3d
00000030: dda1 babd 521e 983c 6a21 c73d e215 113d
00000040: 2de6 00b8 61a0 43bc f7a0 0c3d 213b 7d3d
00000050: 93e2 cebc 0ccf c33c 7161 0e3d 88d6 a1bd
00000060: 4041 36bd 7b73 80bd 52b9 863c b2f9 b9bd
00000070: 0778 27bd 68b5 9dbd 8d86 9e3c e46d 4cbb
00000080: baf4 ad3d 2881 603d cdf6 8dbc 5d5f 8539
00000090: 34ec 70bd 38fb d13d 0b71 d3b9 32da b93d
000000a0: 5204 b4bd cd2b 80bd d993 7b3d 0f27 53bd
000000b0: a9d2 ecbc 8f89 103d 2abc babd 0161 90bd
000000c0: bf08 6fbc c8be ddbc ed48 393b cf7d 38bd
000000d0: df9e 173d a493 003d ed43 68bd 5e69 453d
000000e0: 9e48 d5bd 1d5d 7ebd b5e0 14bc 99e8 793d
000000f0: 840d a73d 55b8 503c 249d e43c 3bb6 673d
00000100: aeee 6e3c 97d8 c13b 3f40 b2bd 398e 513d
00000110: d740 6439 487b 933d b6df 1cbd 4102 09bb
00000120: a45b 15bc 2425 d2bc cb69 aa3d 4534 863d
00000130: 4eb6 9a3c 057e 7e3b 90ab a2bd 7b45 b4bc
00000140: 6f7f 213d 27b5 583d b4f4 1d3d a793 803d
00000150: 240b cebc eafd aabb dc22 98bd 68a9 dbbc
00000160: f7d6 1dbb 67a0 063c c142 b7bd 78fe 933d
00000170: fdde 76bd ffda a73d 15fa 9a3d 9b51 9c3d
00000180: b815 11bd 974c babd 323d 50bc 0ac7 e4bc
